Assets/Models/models_transform/trained_model_scissors/model_weights_scissors.onnx (onnx, 10348 bytes, 1 tensors)

fc1.bias f4 [100]
000000 73 97 40 3e 1a 1f 53 be c0 fb 8d 3d 1f 43 3a 3e
       0.18807773 -0.20617333 0.06932783 0.18189667
000010 04 7f 5b 3d 58 58 f5 3c 9b ae 17 be a0 0c cc bb
       0.05358793 0.029949352 -0.148127 -0.006227091
000020 c5 61 f4 bd 4e 74 c6 3d 7a 21 c7 3d 9b f1 c9 bd
       -0.119327106 0.09690152 0.09723182 -0.09860536
000030 b3 df 47 3e e6 89 47 be 8c 41 2f bd 8c 3e 48 be
       0.19518928 -0.19486198 -0.04278712 -0.1955511
000040 ac d8 71 bd 15 a3 36 3e 91 46 20 3e 44 0a 3f 3d
       -0.059044525 0.17835648 0.15651919 0.04664065
000050 1c f4 38 3e ad 16 20 3e 6c 77 c5 bc a4 9f 4a 3d
       0.1806187 0.1563365 -0.024104796 0.04946865
000060 66 6b a5 3d 55 0e 25 3e 52 89 1c be 6f 5e 37 be
       0.08077125 0.16118748 -0.15286759 -0.17907117
000070 38 9d d4 bc 33 99 38 be a6 21 1a be ac e1 2c 3d
       -0.025953874 -0.18027191 -0.15051898 0.042207405
000080 99 29 37 3e a8 36 ff bd 39 bb 48 3e 8d bd 59 be
       0.17886962 -0.12461597 0.1960267 -0.21263714
000090 76 5b 32 3e 80 49 97 3b 50 12 ec bd c4 9f 44 3d
       0.17417702 0.004616916 -0.1152693 0.048003927
0000a0 e4 88 08 bd 9a 02 ca 3d 05 7b 48 3e 54 26 3d 3d
       -0.033333674 0.098637775 0.19578178 0.04617913
0000b0 a7 bc 50 3e 18 87 13 3e 36 09 f0 3d 34 f8 02 bd
       0.20384465 0.14407003 0.11720507 -0.031974986
0000c0 43 4b 38 3d b7 41 77 3d 40 f4 e9 bb ac c9 24 be
       0.04499365 0.060365405 -0.0071397126 -0.16092557
0000d0 b3 37 ef bd 00 f6 0d be 89 cd 6d 3d e6 c8 bd bc
       -0.11680546 -0.13863373 0.05805734 -0.023167085
0000e0 d5 e1 0b 3d 05 0e 23 be 66 fc 5d be 9b 58 c9 bd
       0.034150917 -0.15923317 -0.21678314 -0.09831353
0000f0 05 bc 3f 3e 58 17 d8 bd 28 18 b7 bd 8c 1a 37 3d
       0.18724068 -0.105513275 -0.08940154 0.04470305
000100 cf 69 16 3e 98 d2 12 bd af c4 31 3e 43 81 1c be
       0.146888 -0.03584537 0.17360185 -0.15283684
000110 62 74 bc 3d a0 af ae bc 9c 63 0e be 5b 13 59 3e
       0.09201886 -0.021323979 -0.13905185 0.2119879
000120 5b e7 58 3e 7b 87 54 3e 20 c1 46 bc ba f7 9c 3d
       0.21182005 0.20754807 -0.0121310055 0.076644376
000130 ad 5e 5f be a7 28 06 bd ce 9a e0 3d 79 61 9e bd
       -0.2181346 -0.032753613 0.10967027 -0.07733435
000140 dd 78 3f be 9c 2f 7b 3d 2f f9 30 3e 67 18 04 3e
       -0.1869845 0.0613247 0.17282556 0.12899934
000150 22 be 81 3d 49 18 05 be dd 4d 1a 3e a0 b5 1b bc
       0.06335093 -0.12997545 0.15068765 -0.009503752
000160 c5 32 4a be 86 5f bb 3d 5a db 8f 3d f6 99 1e be
       -0.1974593 0.09149079 0.0702426 -0.15488419
000170 1c d5 56 be b2 80 da 3d 0c d5 8b 3d f8 d8 06 be
       -0.20979732 0.10669078 0.06827745 -0.13168705
000180 86 2a 08 be dc 06 e3 bd 81 aa 42 3e 08 38 09 bd
       -0.13297471 -0.11085293 0.19010355 -0.0335007
