Assets/Models/models_transform/trained_model_paper/model_weights_paper.onnx (onnx, 10348 bytes, 1 tensors)

fc1.bias f4 [100]
000000 46 1a fa 3d 64 50 44 3d d0 ef ed 3c 15 80 35 3e
       0.122120425 0.04792823 0.029045016 0.1772464
000010 0e 81 da 3d 80 80 a7 ba b2 eb c6 3d 66 40 52 be
       0.106691465 -0.0012779385 0.09712924 -0.20532379
000020 c9 13 35 3e 9f 40 ef 3d 70 ac bd 3c c4 31 11 bd
       0.17683329 0.11682247 0.023153514 -0.03544785
000030 cf 9f 3f 3e 1e c3 e2 bd 82 22 8b bd 14 c3 06 bd
       0.18713306 -0.11072372 -0.06793691 -0.032900885
000040 34 19 65 bd 84 fc c5 bd 90 c5 51 be 3a ed 1e be
       -0.05593224 -0.09667304 -0.2048552 -0.15520182
000050 79 91 17 3e 01 f4 03 be b8 09 2d bd 82 ea d7 3d
       0.14801587 -0.12886049 -0.042245597 0.10542776
000060 4c 99 74 bd 60 58 e0 bc d4 64 23 3e 26 43 f6 bd
       -0.059716508 -0.02738589 0.15956432 -0.12024526
000070 cf f6 24 3e e4 66 ec bd 4b 97 d9 3d 74 fc 3b 3d
       0.16109775 -0.11543062 0.1062456 0.045895055
000080 28 73 5b bd bc 9b 5d be 55 5d 06 be 35 f9 01 3e
       -0.05357662 -0.21641439 -0.13121541 0.12692721
000090 96 3a 91 3d f9 aa de bd 12 2a 88 3d e7 64 17 be
       0.070912525 -0.10872454 0.06648649 -0.14784585
0000a0 84 60 5f 3d 26 48 c9 3d eb 80 3c be 15 fe f1 bd
       0.054535404 0.09828214 -0.18408553 -0.118160404
0000b0 94 b0 fa 3d 08 f5 c6 bc c0 e6 f8 3d be 2d 87 3d
       0.12240711 -0.024286762 0.12153387 0.066005215
0000c0 12 78 b9 3d 66 8f 39 be 9d a1 1d 3e 4c 1b 42 bd
       0.09056105 -0.18121108 0.15393682 -0.047389314
0000d0 20 d5 92 bc 17 95 31 3e 40 39 1c be b7 30 44 3e
       -0.017923892 0.1734203 -0.15256214 0.19159208
0000e0 09 34 16 3e d3 0e 37 be 38 cb 9b bd 84 c9 52 3d
       0.14668287 -0.17876749 -0.0760712 0.05146171
0000f0 c2 44 ce 3d 74 b5 0c be 05 a4 47 3e 36 c0 ce 3d
       0.10071708 -0.13741094 0.19496162 0.10095255
000100 e7 1b 57 3e 6d 25 30 be 46 1d f9 3d e9 b3 a7 3d
       0.21006738 -0.17201777 0.121637866 0.08188612
000110 4e d0 29 be 00 cc 22 3a 60 08 e1 bb e6 30 c3 3d
       -0.16583368 0.0006210208 -0.0068674535 0.09530811
000120 dd 16 28 3e bc 8b 23 be ac 8d 0b bd 0a 74 cd bd
       0.16414972 -0.15971273 -0.034070656 -0.10031898
000130 e0 b5 42 3c 10 7f 03 bd 44 09 53 3d 28 11 e3 bd
       0.011884183 -0.032103598 0.05152251 -0.11087257
000140 36 42 b9 bd 20 5a 0f be 4c 87 1d 3d 94 aa 0b 3d
       -0.09045832 -0.13999224 0.038459107 0.034098223
000150 e4 c7 74 3d c1 7b 23 3e 24 01 92 bd c9 4e ed bd
       0.059760943 0.15965177 -0.07129124 -0.11587293
000160 1e 0f 39 be 1b 6d 4b 3e 90 07 34 be c3 49 45 3e
       -0.18072173 0.19865839 -0.1758101 0.19266419
000170 92 56 e0 bd 1d 14 68 3d 82 b7 92 3d 6e c7 f7 3d
       -0.10954012 0.056659807 0.071639076 0.12098585
000180 22 50 27 be 32 c2 32 be e2 f7 c6 3d 95 6a 3d 3e
       -0.16339162 -0.17456892 0.09715249 0.18497689
