Assets/Models/models_transform/trained_model_rock/model_weights_rock.onnx (onnx, 10348 bytes, 1 tensors)

fc1.bias f4 [100]
0	0xbd78848c	-0.06067328
1	0xbd77f858	-0.060539573
2	0x3d81bd9a	0.06334992
3	0x3ddc2ba2	0.1075051
4	0x3de0897e	0.109637246
5	0x3e49ea13	0.19718198
6	0xbe5d5c5f	-0.21617268
7	0x3dcf54ca	0.10123594
8	0x3cb863d8	0.022508547
9	0xbe52bd85	-0.20580108
10	0xbd6c5720	-0.057700276
11	0x3df60f5e	0.1201465
12	0x3e01eda5	0.1268831
13	0xbdcac77d	-0.099013306
14	0xbcecf1e8	-0.028923944
15	0xbe2217fb	-0.1582946
16	0x3c1052a6	0.008808767
17	0x3d90317e	0.0704069
18	0xbd9f88c6	-0.07789759
19	0xbdcc351b	-0.099710666
20	0x3db23972	0.08702363
21	0xbded3dc7	-0.11584049
22	0xbe306ce8	-0.17229044
23	0xbddacd8d	-0.10683737
24	0xbd20a504	-0.03921987
25	0xbd7c3c08	-0.061580688
26	0xbe54edc8	-0.20793831
27	0x3d705a7b	0.05868004
28	0x3e1328db	0.14371054
29	0xbe3656e5	-0.17806585
30	0xbd866c06	-0.065635726
31	0x3e02e9e5	0.12784536
32	0xbe1e34a1	-0.15449764
33	0xbe1a1856	-0.15048346
34	0x3d08d4bc	0.033406004
35	0x3dff6be2	0.12471749
36	0x3d91e02e	0.07122837
37	0x3cbb2eb0	0.02284941
38	0xbd281ec1	-0.041044954
39	0xbe132d3e	-0.14372727
40	0xbdcea20d	-0.100895025
41	0xbe242914	-0.16031295
42	0x3c159045	0.009128635
43	0xbdbeb56a	-0.09311946
44	0x3e100001	0.14062501
45	0xbe51c0e1	-0.20483734
46	0x3de2fb1a	0.1108305
47	0xbd6246f4	-0.055243447
48	0x3e07aa69	0.132486
49	0x3e24ea83	0.16105084
50	0xbe3c5f7d	-0.18395801
51	0x3c006220	0.007835895
52	0x3e04ac3e	0.1295633
53	0x3dfe414d	0.12414799
54	0xbe254b68	-0.16142046
55	0xbd83f54e	-0.064432725
56	0xbe4bfeb5	-0.19921382
57	0xbd424720	-0.04743111
58	0x3d69d8e4	0.05709161
59	0x3e271b89	0.16319098
60	0x3cd77bf1	0.026304217
61	0x3e201771	0.15633942
62	0x3e392919	0.18082084
63	0x3e2a8efa	0.16656104
64	0xbd043480	-0.03227663
65	0x3deef14e	0.11667119
66	0x3e063089	0.13104452
67	0xbde48902	-0.11158945
68	0x3ddcb51a	0.1077673
69	0x3d6e754c	0.05821733
70	0x3e049459	0.12947215
71	0xbe27836b	-0.16358726
72	0x3e02dca9	0.12779488
73	0x3e35cf09	0.17754759
74	0xbe1811cb	-0.14850537
75	0xbe2708b4	-0.16311914
76	0x3dc10886	0.09425454
77	0x3c7cf250	0.015438631
78	0x3e482ea7	0.19549046
79	0x3980bb0d	0.00024553426
80	0x3dc0b1aa	0.09408887
81	0xbe1d4aef	-0.15360616
82	0x3e138601	0.14406587
83	0x3d16dc1c	0.036831006
84	0x3d83c57e	0.06434153
85	0xbd4fd724	-0.050742283
86	0x3ddba52a	0.10724862
87	0xbe2ff658	-0.17183816
88	0x3dda8a62	0.10670926
89	0x3e575f6d	0.21032496
90	0x3e4240bd	0.18970008
91	0x3c654e60	0.013995737
92	0x3e2d05ab	0.16896693
93	0x3df9d43e	0.12198685
94	0xbe0a89a4	-0.13529068
95	0xbd87a736	-0.0662369
96	0xbd501360	-0.050799727
97	0xbddb2b6a	-0.1070164
98	0xbe32bd8b	-0.17455117
99	0xbccbd738	-0.024882898
