Assets/Models/models_transform/trained_model_fist_up/model_weights_fist_up.onnx (onnx, 10348 bytes, 1 tensors)

fc1.bias f4 [100]
0	0x3e384f6d	0.17999049
1	0xbd9857d8	-0.0743863
2	0x3d0af322	0.033923276
3	0x3dc40386	0.095709845
4	0xbe0921df	-0.13391827
5	0xbe0852e2	-0.13312867
6	0x3c073418	0.008252166
7	0xbdcbd3c9	-0.09952504
8	0x3d0ed645	0.034872312
9	0xbc7c5b80	-0.015402675
10	0xbdfb5519	-0.122720905
11	0x3c972480	0.018450022
12	0x3b27d880	0.0025611222
13	0xbe11f94a	-0.14255252
14	0x3d6135f4	0.054983094
15	0xbdd51b4e	-0.104055986
16	0xbe201fb6	-0.15637097
17	0xbd555448	-0.05208233
18	0x3b33f2ff	0.002745807
19	0x3dcb1f02	0.09918024
20	0x3ddedb52	0.10881676
21	0x3d988ee6	0.07449131
22	0xbe48867c	-0.19582552
23	0x3e2baf65	0.16766126
24	0x3c937a52	0.018002663
25	0x3de80e22	0.113308206
26	0xbdd8cbe4	-0.10585764
27	0x3ca55d08	0.020185962
28	0xbde4c8be	-0.11171101
29	0xbdf3a585	-0.11896805
30	0x3e1c1fbd	0.15246482
31	0xbe5e35c2	-0.21700194
32	0xbe291840	-0.16513157
33	0x3dd7caff	0.10536765
34	0xbd0064cc	-0.031346127
35	0x3d82f2c2	0.06393959
36	0xbd3898f8	-0.045067757
37	0x3e164e19	0.1467823
38	0xbd0c6ba1	-0.03428233
39	0x3e581145	0.21100338
40	0x3d9cc4aa	0.07654698
41	0x3dfa306a	0.122162655
42	0xbc858bab	-0.01630195
43	0x3dfa989e	0.12236141
44	0x3dea7082	0.114472404
45	0x3e09ae89	0.13445486
46	0xbe4116d0	-0.18856359
47	0x3def3292	0.116795674
48	0x3e5e3179	0.2169856
49	0xbcafd248	-0.021462575
50	0x3db798d6	0.08964698
51	0x3c584290	0.0131994635
52	0xbdc7b839	-0.097519346
53	0x3e2516a5	0.1612192
54	0x3e05b515	0.13057359
55	0xbd88cae6	-0.06679325
56	0xbe5f69a3	-0.21817641
57	0x3ccad820	0.02476126
58	0x3d0e9bee	0.034816675
59	0x3e472fcd	0.19451828
60	0x3e2b2e85	0.16716965
61	0xbe0e1822	-0.13876393
62	0xbe4d78dd	-0.20065637
63	0xbe4d384b	-0.20041005
64	0x3de9e5da	0.11420794
65	0xbcade260	-0.021226108
66	0x3e210216	0.15723452
67	0x3de70e26	0.112819955
68	0xbe50ee42	-0.20403388
69	0x3e37d841	0.17953588
70	0xbe573746	-0.21017179
71	0x3e437be1	0.19090225
72	0x3e0427ea	0.12905851
73	0x3d9e19da	0.077197745
74	0xbd2993f5	-0.04140087
75	0xbe4d3156	-0.20038351
76	0x3e171db5	0.14757426
77	0xbcd32520	-0.025774539
78	0x3d3806f4	0.044928506
79	0x3e371ded	0.1788251
80	0xbe421282	-0.18952373
81	0xbe253fcc	-0.16137618
82	0x3e423ec7	0.1896926
83	0x3e05af4b	0.1305515
84	0xbdba5976	-0.090990946
85	0xbe28758e	-0.16451094
86	0x3e37c667	0.17946778
87	0x3e20b381	0.15693475
88	0xbe408c07	-0.18803416
89	0xbe5823f8	-0.21107471
90	0x3d2c4874	0.042061284
91	0xbe238007	-0.15966807
92	0xbe1cd636	-0.1531609
93	0x3d79e204	0.06100656
94	0x3e2c6937	0.16837011
95	0xbdb5f4ea	-0.08884604
96	0xbe12cb28	-0.1433531
97	0xbd1db400	-0.03850174
98	0xbd850c62	-0.064965025
99	0x3e4f9aa7	0.20273839
