serverModels/two_hands.onnx (onnx, 19549 bytes, 1 tensors)

fc1.bias f4 [100]
0.12869158 0.09671598 0.10175481 0.043889366 0.121314205 0.053539816 -0.09312176 0.047329806
-0.0067383694 -0.06291126 -0.012258093 -0.07232693 -0.12049331 0.024849735 0.119337685 -0.058313165
-0.10121983 0.014573125 -0.025715008 -0.040692005 -0.09064445 0.02764243 -0.12689945 0.08910654
0.045719475 -0.0025826944 0.12135903 -0.057590336 -0.031338483 -0.13370745 0.006862768 -0.0519908
-0.08702736 0.043114256 0.10503619 0.029873079 -0.05106631 0.0061794026 -0.06805466 0.04051197
0.016217299 -0.0960259 -0.074104525 0.14570233 0.10272113 -0.015599756 -0.058132876 -0.032790683
-0.14962448 0.05426313 0.08873064 0.119648844 0.12455843 -0.0050938535 -0.09005358 -0.006194768
-0.0074852714 -0.08067254 0.13890132 0.12803228 0.08506552 0.036536984 -0.00017674947 -0.11311447
0.13463132 -0.121614315 0.11956566 -0.002665781 -0.112169005 -0.08438998 -0.105256744 -0.039103527
-0.015487603 0.017344056 -0.027088173 -0.029728381 0.11257452 -0.07531684 -3.2294745e-05 0.09490464
-0.04164586 -0.08459469 0.06045017 -0.04109572 -0.1493413 -0.09859735 -0.018105596 0.032048877
-0.02235384 -0.015893273 0.008801531 -0.08612627 -0.08700916 -0.05740557 -0.05818323 0.08649873
0.11440487 -0.075382546 -0.05962272 0.13757744
00000000: bac7 033e 0713 c63d d364 d03d 56c5 333d
00000010: 9573 f83d 914c 5b3d 9fb6 bebd e6dc 413d
00000020: 8acd dcbb 9ed7 80bd 2bd6 48bc 2420 94bd
00000030: 32c5 f6bd ac91 cb3c 5167 f43d c9d9 6ebd
00000040: 584c cfbd 1ec4 6e3c 48a8 d2bc a9ac 26bd
00000050: cca3 b9bd 6172 e23c eef1 01be 7d7d b63d
00000060: 5844 3b3d 6c42 29bb 158b f83d d8e3 6bbd
00000070: c85c 00bd 9bea 08be 12e1 e03b 4ef4 54bd
00000080: 673b b2bd 9398 303d 371d d73d 63b8 f43c
00000090: e82a 51bd 967c ca3b 3e60 8bbd e1ef 253d
000000a0: 24da 843c 3aa9 c4bd 1dc4 97bd fe32 153e
000000b0: 755f d23d 1e96 7fbc bd1c 6ebd 864f 06bd
000000c0: 2937 19be 0443 5e3d 69b8 b53d 740a f53d
000000d0: 7d18 ff3d 57ea a6bb 036e b8bd 7bfd cabb
000000e0: 0247 f5bb a537 a5bd 263c 0e3e e51a 033e
000000f0: d536 ae3d cea7 153d d355 39b9 8fa8 e7bd
00000100: cbdc 093e ed10 f9bd d7de f43d 62b4 2ebb
00000110: ddb8 e5bd a7d4 acbd d990 d7bd 052b 20bd
00000120: b7bf 7dbc 1f15 8e3c 04e8 ddbc ef88 f3bc
00000130: 788d e63d b73f 9abd 3874 07b8 5d5d c23d
00000140: d994 2abd fb3f adbd 999a 773d fc53 28bd
00000150: edec 18be 68ed c9bd 3052 94bc af45 033d
00000160: 661f b7bc 9c32 82bc 4c34 103c f862 b0bd
00000170: dc31 b2bd 1a22 6bbd 8a51 6ebd 3f26 b13d
00000180: 1a4d ea3d 2a62 9abd f436 74bd 1ae1 0c3e
