Assets/Models/models_transform/trained_model_thumbs_down/model_weights_thumbs_down.onnx (onnx, 10348 bytes, 1 tensors)

fc1.bias f4 [100]
00000000: a4f0 013d 0e59 7e3d 2c8c 2ebe 9e24 90bd
00000010: ec9d 0ebe 450f 55be e846 e8bc c4c2 a7bd
00000020: 1518 0a3e bbbc 1dbe c803 e03c 6ca0 003d
00000030: d8ca 4fbd 50b7 ecbd db5a 3dbe 6c4e 443e
00000040: 31f8 27be 8aa3 7a3d 4c9c 3f3d 2289 a43d
00000050: 1440 6c3d b064 723d e048 fb3c 5209 cbbd
00000060: 3063 12bd 20ac 19bc 4840 29be 1d43 8e3d
00000070: 0dc3 583e 753c cebd 10b9 1dbe fe94 9bbd
00000080: 7e73 48be e778 503e c951 ed3c 49ea 37be
00000090: c092 103b 23e5 383e a4a6 40bd 60e8 4ebc
000000a0: ee01 87bd ff66 1dbd 0d42 1bbe 746c 193d
000000b0: 6323 343e 30bf 7b3c 7f1c eabd 9581 4e3e
000000c0: 83ec 423e 80a9 f23a ee04 ab3d c233 2fbe
000000d0: 975d f83d d0d4 dd3d d1ff 563e 1c98 873c
000000e0: d7a6 2d3e ae20 f3bd 379d 153e ff8c 2d3e
000000f0: cb89 0d3e eae5 de3d 4851 d6bc 4071 54bd
00000100: 5537 5ebe 85fd 0d3e 6425 2abe 5671 c93d
00000110: a03d 35bc 36cb 4f3e 58b9 b1bc 6924 113e
00000120: c30f 373e 83cf aebd ffc2 2dbe 5153 323e
00000130: e33f 49be 3ab1 ef3d 2b9e 373e a8c5 b03d
00000140: f435 453d c3fa 1d3e 654f 40be 04de 323d
00000150: f532 20be bf06 163e 14d8 3cbd 72c1 08be
00000160: 28c8 66bd 7cf0 dcbd 8664 b83d 4b34 423e
00000170: a86c 0cbe 7936 5d3e ab6d 5b3e 64c4 02be
00000180: aef4 1bbe ce27 eb3d e830 c5bd 2ad9 ad3d
0.031723633 0.062096648 -0.17045659 -0.07038234 -0.1392743 -0.20806606 -0.028354123 -0.081914455
0.13485749 -0.15404026 0.027345553 0.03140299 -0.050730556 -0.115584016 -0.1849169 0.1917054
-0.16403271 0.06119112 0.046779916 0.080339685 0.057678297 0.059178054 0.030674398 -0.09913887
-0.035739124 -0.009379417 -0.16528428 0.069463946 0.21168156 -0.10070125 -0.15402627 -0.075967774
-0.19575307 0.2035862 0.028969662 -0.17960466 0.0022060126 0.18056159 -0.04703392 -0.012628645
-0.06592165 -0.038428303 -0.15161915 0.037456945 0.17591624 0.015365407 -0.114312164 0.20166619
0.19035535 0.001851365 0.0835055 -0.17109588 0.12127226 0.108316064 0.20996024 0.016552024
0.16958176 -0.118714675 0.14610754 0.16948317 0.13822095 0.108836964 -0.026161805 -0.051865816
-0.21700795 0.13866241 -0.16615826 0.0983607 -0.011062056 0.20292363 -0.021694824 0.14174046
0.17877106 -0.085356735 -0.16968916 0.17414595 -0.19653277 0.11703725 0.1793143 0.0863145
0.048147157 0.15427689 -0.18780287 0.04366876 -0.15644439 0.14651011 -0.046104506 -0.13355044
-0.056343228 -0.10788056 0.09003548 0.1896526 -0.13713324 0.21602811 0.21428554 -0.1277023
-0.15230057 0.114822015 -0.09628469 0.084886864
