Assets/Models/model_two_hands_weights.onnx (onnx, 19549 bytes, 1 tensors)

fc1.bias f4 [100]
0.005540373 -0.14362516 -0.091158286 -0.06673925 -0.123636 0.12368053 -0.009052287 -0.09822733
-0.11897162 0.010387201 0.05065038 -0.089826584 0.06506336 0.07439965 -0.09776324 0.072864614
0.019934842 -0.07158406 0.12417015 -0.08333471 0.048957802 -0.035428464 0.13998707 0.00997962
0.017705606 0.12447446 -0.11240907 -0.10552842 -0.09218708 -0.07059239 -0.02210452 -0.0059096506
-0.10568233 0.005018319 0.1292098 -0.09521693 -0.061504766 -0.0698648 0.102600165 0.069405824
0.102822855 0.045965448 -0.1502129 -0.05528028 0.10516569 0.051105343 -0.03906801 0.0336873
-0.059588708 0.10652823 0.058561467 -0.061466854 0.07614472 -0.024921568 -0.07477383 -0.10702579
-0.068974905 0.04292604 0.023153156 0.09157397 -0.10060091 -0.04021436 0.13249601 -0.03455837
0.096243516 0.12751852 0.021909777 -0.11405729 0.051785115 0.12124156 -0.055170115 -0.10272794
0.0011527624 -0.13577218 -0.12435213 -0.032360952 0.023431877 -0.02423398 -9.94901e-05 0.09796099
-0.09582842 -0.11437878 -0.12908024 -0.036899757 0.027464094 0.12708336 -0.020972947 0.058030788
-0.107616544 -0.032406975 -0.07657224 0.09080157 0.04450994 -0.028256122 -0.0072736675 0.10959465
0.14138405 0.071028054 0.047044042 0.067243695
00000000: 048c b53b 7912 13be 32b1 babd 97ae 88bd
00000010: df34 fdbd 384c fd3d 0b50 14bc 692b c9bd
00000020: 65a7 f3bd 142f 2a3c c676 4f3d 00f7 b7bd
00000030: f03f 853d d85e 983d 1838 c8bd 0b3a 953d
00000040: 654e a33c aa9a 92bd eb4c fe3d 63ab aabd
00000050: fa87 483d 701d 11bd c558 0f3e 8f81 233c
00000060: 590b 913c 77ec fe3d ba36 e6bd 491f d8bd
00000070: 94cc bcbd be92 90bd 8a14 b5bc bea5 c1bb
00000080: fa6f d8bd b670 a43b 934f 043e 1801 c3bd
00000090: 6cec 7bbd 4715 8fbd 0920 d23d a424 8e3d
000000a0: ca94 d23d 4446 3c3d 69d1 19be 936d 62bd
000000b0: 1c61 d73d d653 513d c705 20bd b2fb 093d
000000c0: 4a13 74bd 792b da3d 26de 6f3d abc4 7bbd
000000d0: c3f1 9b3d 5128 ccbc 0623 99bd 5630 dbbd
000000e0: b742 8dbd 37d3 2f3d b0ab bd3c 228b bb3d
000000f0: da07 cebd d0b7 24bd 09ad 073e 148d 0dbd
00000100: 521b c53d 3794 023e 227c b33c de96 e9bd
00000110: a11c 543d 7f4d f83d 0ffa 61bd 0763 d2bd
00000120: 4a18 973a dd07 0bbe 54ac febd eb8c 04bd
00000130: 35f4 bf3c 5786 c6bc 57a5 d0b8 c69f c83d
00000140: b141 c4bd 6c3f eabd 9c2d 04be 3324 17bd
00000150: 61fc e03c 2422 023e 75cf abbc b1b1 6d3d
00000160: 1066 dcbd 2dbd 04bd e8d1 9cbd 2cf6 b93d
00000170: 0e50 363d 6279 e7bc f257 eebb 2973 e03d
00000180: fbc6 103e 2877 913d 41b1 403d 10b7 893d
