Assets/Models/model_two_hands_weights.onnx (onnx, 19549 bytes, 1 tensors)

fc1.bias f4 [100]
-0.1480512 -0.04982026 -0.06859984 -0.05341732 0.14601415 0.008322933 0.04421639 -0.11344171
-0.1322214 0.05205725 -0.099223815 0.15011697 -0.05348632 -0.1309061 -0.11326834 -0.03246037
-0.103954904 -0.11539088 -0.018167546 -0.13195403 0.06924869 -0.06709169 0.038066678 0.0608206
-0.07503108 0.06937758 -0.14747149 -0.113839746 -0.13718796 -0.10474907 -0.047506016 -0.001434645
-0.09526361 -0.047998417 -0.13829444 0.09157817 -0.08286452 0.09763991 0.098195 -0.06227223
-0.096055724 0.058506377 -0.062308207 0.03820477 -0.10880004 0.12113059 0.076997556 0.09257906
-0.096857324 -0.018903036 0.022484815 -0.10258004 0.06658012 0.027265424 -0.13269594 0.08628572
0.05755121 -0.08974824 0.03291895 0.07917748 -0.08270935 0.056690592 0.04728008 0.12989458
-0.061678145 0.093629465 -0.0058221114 0.079171725 -0.07433127 -0.1226723 0.053059 0.028715778
-0.037227117 0.1391854 0.012387847 0.09646709 -0.14165999 0.10416602 0.12276773 -0.043487594
0.036262847 0.086876735 0.018492704 -0.009000433 0.09332119 0.14377938 -0.09162921 -0.046574987
-0.096609734 -0.08007192 0.14820504 0.04393125 -0.12283122 -0.05618694 0.1135176 0.11213294
0.065903865 0.095555834 -0.07605894 0.13625021
00000000: bc9a 17be 5410 4cbd 137e 8cbd 1fcc 5abd
00000010: bc84 153e e95c 083c 3f1c 353d 2154 e8bd
00000020: 0c65 07be fc39 553d db35 cbbd 43b8 193e
00000030: 7914 5bbd 400c 06be 3bf9 e7bd 2af5 04bd
00000040: 4fe6 d4bd 0e52 ecbd 1bd4 94bc f51e 07be
00000050: 42d2 8d3d 5e67 89bd ceeb 1b3d 051f 793d
00000060: e5a9 99bd d515 8e3d c402 17be d024 e9bd
00000070: 007b 0cbe ae86 d6bd ab95 42bd b30a bcba
00000080: 9119 c3bd fd99 44bd 0f9d 0dbe 568d bb3d
00000090: e0b4 a9bd 6ff7 c73d 761a c93d 2a11 7fbd
000000a0: ddb8 c4bd 62a4 6f3d e436 7fbd 9b7c 1c3d
000000b0: 8ed2 debd 5113 f83d e5b0 9d3d 179a bd3d
000000c0: 225d c6bd 8ada 9abc 1332 b83c 7c15 d2bd
000000d0: 285b 883d bd5b df3c 72e1 07be 91b6 b03d
000000e0: d1ba 6b3d edcd b7bd 05d6 063d cd27 a23d
000000f0: 8563 a9bd 6534 683d c2a8 413d 1603 053e
00000100: 39a2 7cbd cec0 bf3d 69c7 bebb c924 a23d
00000110: fe3a 98bd 9d3b fbbd 6554 593d 5a3d eb3c
00000120: 767b 18bd 9e86 0e3e 65f6 4a3c 8a90 c53d
00000130: 510f 11be ff54 d53d a66d fb3d 0c20 32bd
00000140: 5a88 143d 6eec b13d 037e 973c 8d76 13bc
00000150: 2e1f bf3d e73a 133e 18a8 bbbd 6ac5 3ebd
00000160: 53db c5bd bffc a3bd 10c3 173e 41f1 333d
00000170: ef8e fbbd 4724 66bd ea7b e83d f4a5 e53d
00000180: 9bf8 863d c7b2 c33d cac4 9bbd 2d85 0b3e
