Assets/Models/model_two_hands_weights.onnx (onnx, 19549 bytes, 1 tensors)

fc1.bias f4 [100]
0	0xbd2b8c42	-0.041881807
1	0x3e0a2c43	0.13493447
2	0x3db00da7	0.08596354
3	0x3d9dbdae	0.07702194
4	0xbdf5c1ec	-0.11999878
5	0xbdf6b80b	-0.12046822
6	0xbd84785b	-0.064682685
7	0x3e0af357	0.1356939
8	0xbdfc76c7	-0.123273425
9	0xbceaf3e5	-0.028680751
10	0xbcec66fb	-0.028857699
11	0xbd2d1c84	-0.042263523
12	0xbdb23146	-0.087008044
13	0x3d38030f	0.044924792
14	0x3e01e56f	0.12685178
15	0x3e17f169	0.14838184
16	0x3dc54859	0.0963294
17	0xbd5ea4da	-0.054356433
18	0xbdd9f599	-0.10642547
19	0xbd810d18	-0.063013256
20	0x3cb1750e	0.021662261
21	0xbbdaa383	-0.006672324
22	0x3dc9ef64	0.09860113
23	0x3d86d35a	0.06583281
24	0xbda1541a	-0.07877369
25	0x3ad93f94	0.0016574734
26	0xbda83d33	-0.08214798
27	0xbe1692ca	-0.14704433
28	0x3c4f0797	0.012636087
29	0x3da0e154	0.07855478
30	0xbce84900	-0.028355122
31	0x3dded9cb	0.108813845
32	0x3dde13e1	0.10843635
33	0x3e0e141f	0.13874863
34	0xbce930bc	-0.028465621
35	0xbdfc1b55	-0.12309901
36	0xbdce6394	-0.10077587
37	0xbde11653	-0.10990586
38	0xbd65482d	-0.055977035
39	0x3c6a3046	0.014293736
40	0xbdcb7591	-0.099345334
41	0x3defff04	0.11718562
42	0x3cb8f2be	0.022576686
43	0x3d4b6e6f	0.049665865
44	0x39781187	0.00023657652
45	0xbd2f42e8	-0.042788416
46	0x3e0b956b	0.13631217
47	0xbdf43490	-0.11924088
48	0xbc53cba8	-0.012926973
49	0xbde7cb3e	-0.11318062
50	0xbdfde72b	-0.123976074
51	0xbd30198b	-0.04299311
52	0xbd6c253b	-0.057652693
53	0x3dddbd10	0.108270764
54	0x3d101f61	0.035186175
55	0xbd698157	-0.057008114
56	0x3d116a2d	0.035501648
57	0x3df56060	0.11981273
58	0x3d99d773	0.07511797
59	0xbdd8bdaf	-0.10583054
60	0x3def8597	0.11695402
61	0x3d63ea9c	0.055643663
62	0xbe133446	-0.1437541
63	0xbe180064	-0.14843899
64	0x3d8f9dac	0.070124954
65	0x3d5e6e6a	0.054304518
66	0xbc72558b	-0.014790903
67	0x3df6947a	0.120400384
68	0xbc97d772	-0.01853535
69	0x3df1e3bb	0.11811014
70	0x3c6e1f2a	0.014533797
71	0x3d4af695	0.049551565
72	0x3d38e410	0.045139372
73	0xbd0cc01d	-0.0343629
74	0x3e0ea56e	0.13930294
75	0xbdbb902f	-0.0915836
76	0x3db31eb5	0.08746091
77	0x3cac8f0c	0.021064304
78	0xbacfccda	-0.0015853897
79	0x3b77bd68	0.0037802104
80	0xbe0bb3ff	-0.13642882
81	0x3d7fd122	0.062455304
82	0xbc492469	-0.012276747
83	0x3e0c2df2	0.13689402
84	0x3da9112e	0.0825523
85	0x3e004cf0	0.1252935
86	0x3d847771	0.06468094
87	0x3d8ac6ff	0.06776237
88	0xbd21bf1e	-0.039488904
89	0x3d7f6536	0.06235238
90	0x3caddf60	0.021224678
91	0xbd6d092d	-0.05787008
92	0x3de00f15	0.10940377
93	0x3c096db3	0.008387971
94	0xbca0bbef	-0.019620864
95	0xbdd132b5	-0.1021475
96	0x3dd2edb7	0.10299247
97	0xbd87a1b0	-0.06622636
98	0x3d017bee	0.03161233
99	0x3dc21070	0.094757915
