Assets/Models/model_two_hands_weights.onnx (onnx, 19549 bytes, 1 tensors)

fc1.bias f4 [100]
-0.20671754 0.15525958 0.14144075 -0.23074944 -0.10065559 -0.2691047 0.25615382 0.23770297
0.20782577 0.2389533 0.15032518 0.19265331 0.042159915 -0.21865514 -0.16245244 0.06397185
0.27370563 0.14900222 -0.08705807 0.29200974 -0.07970978 0.22811328 0.3534307 -0.14726199
0.11556991 0.27241078 0.21313252 0.13270603 0.18955581 0.06430307 -0.16574869 -0.11867531
-0.20035501 -0.11631285 -0.2905634 0.11969935 0.305397 0.12839873 0.1641664 0.085048705
-0.08110214 -0.11148349 0.16120762 0.30403867 0.090967864 0.27388313 0.1354523 0.039178926
0.14314148 -0.318994 -0.17148876 0.14472574 -0.28813356 -0.28018108 0.08452974 -0.13475746
0.26716822 -0.21268527 0.10475864 0.14082675 0.23662308 -0.094303116 -0.21534757 0.33541554
-0.2739997 0.16787647 0.082843155 0.09336045 0.0602603 -0.110844456 -0.19193138 -0.29692486
0.10083905 0.23174703 -0.26673374 -0.28701884 0.097046666 -0.17473732 0.2846052 0.0841215
-0.13327295 -0.093480565 0.06670933 -0.07224839 -0.23293231 0.052094795 0.23745978 0.34631166
-0.14640513 0.037027188 -0.09146172 0.066287875 -0.19221564 0.05346325 -0.2431584 -0.29578754
-0.31028035 0.12631279 -0.33620146 -0.19720648
00000000: c3ad 53be 5efc 1e3e d8d5 103e 9549 6cbe
00000010: 8524 cebd 17c8 89be 9826 833e 6868 733e
00000020: 47d0 543e 2db0 743e d8ee 193e e946 453e
00000030: e0af 2c3d 22e7 5fbe ef59 26be ac03 833d
00000040: 2523 8c3e 0a94 183e 804b b2bd 4d82 953e
00000050: e23e a3bd 8796 693e def4 b43e d9cb 16be
00000060: ebaf ec3d 6d79 8b3e 693f 5a3e 17e4 073e
00000070: eb1a 423e 54b1 833d 06ba 29be 0a0c f3bd
00000080: dd29 4dbe 6e35 eebd bac4 94be ef24 f53d
00000090: ff5c 9c3e f57a 033e 3d1b 283e 042e ae3d
000000a0: e118 a6bd 7551 e4bd 9c13 253e f5aa 9b3e
000000b0: 5c4d ba3d 693a 8c3e 02b4 0a3e 157a 203d
000000c0: ae93 123e 2e53 a3be c09a 2fbe fc32 143e
000000d0: 3e86 93be e573 8fbe ee1d ad3d dcfd 09be
000000e0: 46ca 883e 2bca 59be b38b d63d e334 103e
000000f0: 524d 723e fe21 c1bd 1384 5cbe 96bb ab3e
00000100: b049 8cbe cfe7 2b3e aca9 a93d c333 bf3d
00000110: 81d3 763d 6b02 e3bd a989 44be 8906 98be
00000120: b484 ce3d 184f 6d3e 5391 88be 22f4 92be
00000130: 67c0 c63d 57ee 32be c6b7 913e e547 ac3d
00000140: b478 08be bd72 bfbd e79e 883d f7f6 93bd
00000150: cf85 6ebe 5a61 553d a828 733e c34f b13e
00000160: 3aeb 15be d2a9 173d 4850 bbbd f0c1 873d
00000170: 2dd4 44be 48fc 5a3d 84fe 78be 7771 97be
00000180: 11dd 9ebe 2458 013e 9922 acbe 7ff0 49be
