Assets/Models/thumbs_up_one_hand_transform.onnx (onnx, 10348 bytes, 1 tensors)

fc1.bias f4 [100]
0	0x3e1c6df9	0.15276326
1	0x3e507961	0.20358802
2	0x3e57e971	0.21085145
3	0xbe140cde	-0.14458033
4	0x3e492e3b	0.19646542
5	0x3e590753	0.211942
6	0x3e0ad8a9	0.13559212
7	0x3d3d2d3c	0.046185717
8	0xbe5e9016	-0.21734652
9	0xbe209fd6	-0.15685973
10	0xbdea1ad8	-0.11430901
11	0xbdf4b9ef	-0.119495265
12	0xbe56a1c2	-0.20960143
13	0x3e178c0d	0.14799519
14	0x3cfb1618	0.030650184
15	0xbda171e2	-0.078830495
16	0x3de25289	0.110508986
17	0x3e099a65	0.13437803
18	0x3e09db95	0.1346267
19	0xbd8db252	-0.069187775
20	0x3e5979ff	0.21237944
21	0x3e1fb6d5	0.15597089
22	0xbc88b5ed	-0.016688311
23	0x3ce4b598	0.027918622
24	0xbe5451eb	-0.20734374
25	0xbdcae2c4	-0.09906533
26	0xbe3c8c2e	-0.1841285
27	0x3d285a3c	0.04110168
28	0x3e518351	0.2046025
29	0xbd243774	-0.040091947
30	0x3c96db28	0.018415049
31	0xbd57ed44	-0.05271651
32	0x3e144f0b	0.14483277
33	0x3b760ded	0.0037544922
34	0xbe1585c9	-0.14601816
35	0x3ce521b8	0.02797018
36	0xbe0ca906	-0.13736352
37	0xbe21a044	-0.15783793
38	0x3e5f1aa9	0.21787514
39	0xbc5ce3d0	-0.013482049
40	0xbdee850c	-0.116464704
41	0xbe38f84d	-0.18063469
42	0xbc45dfb0	-0.012077257
43	0x3ca0edf8	0.019644722
44	0x3e224e81	0.1585026
45	0xbd9fe09c	-0.07806513
46	0xbcba1810	-0.022716552
47	0x3d2048ac	0.039131805
48	0xbdcd40fd	-0.10022161
49	0xbe0da436	-0.13832173
50	0xbddc8bfb	-0.10768887
51	0xbdd264bf	-0.10273122
52	0xbe321f92	-0.17394856
53	0x3cdd7fdd	0.027038509
54	0x3db77bee	0.089591846
55	0x3df4a762	0.11945988
56	0x3e0d79ff	0.13816069
57	0x3e572ee9	0.21013989
58	0x3e2a99f3	0.1666029
59	0x3df4dbe2	0.11956002
60	0x3e494439	0.19654931
61	0x3e184e73	0.14873676
62	0x3da180fe	0.078859314
63	0xbdd32e8b	-0.10311612
64	0xbdccdb3b	-0.100027524
65	0xbe459239	-0.19294061
66	0xbd083ed4	-0.033263043
67	0x3e3a654f	0.18202709
68	0x3d8437fe	0.06455992
69	0xbd98fb08	-0.074697554
70	0xbc9dbfc4	-0.01925648
71	0x3dffb51a	0.12485714
72	0x3e08360b	0.13301866
73	0xbd93e9ec	-0.072223514
74	0xbe57453f	-0.21022509
75	0xbe3ea5fb	-0.18618004
76	0xbbbbbba0	-0.0057291538
77	0xbc59cf7c	-0.013294097
78	0xbdb7b7ce	-0.08970605
79	0x3c669270	0.014072999
80	0xbe34746e	-0.1762254
81	0xbdc92f43	-0.098234676
82	0x3e407473	0.18794422
83	0x3d4d96dc	0.0501927
84	0x3dcf4ca6	0.101220414
85	0xbd085d68	-0.033292204
86	0x3e4b1b8b	0.19834726
87	0x3d724bc4	0.059154287
88	0x3dd430d4	0.10360876
89	0x3dd4babe	0.10387181
90	0x3d7aea14	0.06125839
91	0x3e02bd89	0.12767614
92	0x3df8a7ae	0.12141357
93	0x3d09dda4	0.03365864
94	0xbe4f6296	-0.20252451
95	0xbd8198cc	-0.06327972
96	0x3df43666	0.11924438
97	0x3e3ba2a7	0.18323766
98	0xbe4f2888	-0.20230305
99	0xbdb7838e	-0.08960639
