Assets/Models/thumbs_up_one_hand.onnx (onnx, 8744 bytes, 1 tensors)

fc1.bias f4 [100]
00000000: e670 d83d 3f81 253d ff9a 013d b968 5cbe
00000010: 6939 3c3e 3086 423e 943e 5bbe 4675 50be
00000020: 885a f83b 20f6 23bd f87b b2bd b2fc 14be
00000030: 2dda 913d e06d 773e 71f6 00be 6252 ee3c
00000040: 3f67 41be b0ae cf3d 9055 23be bfb3 383d
00000050: a76d f8bd cff8 5d3e fccf 47be 881b 763e
00000060: 2ed7 f4bd 2cef 57bd b522 f23d e5fd 883d
00000070: 9fe6 bcbd f24a cbbd 3612 123e 3d76 a1bd
00000080: 8295 7d3d a8d1 45be 9a18 133e 388b d73c
00000090: 8b59 78be 44f2 2e3e 4401 1bbe 694b 703e
000000a0: bffd 1dbd f71e 5d3c 9d4c 8c3a 295d 33be
000000b0: 7051 083d bf8b 2cbe edc3 cdbd c2a4 c3bc
000000c0: 3f0c e53d 3f51 7abd 4a6b 2bbe 0d4f aabd
000000d0: b592 b23d f210 4a3d 4799 dd3d 3f23 323d
000000e0: 4ce8 6d3d c20e c53d 1945 cebc 08ae 33bd
000000f0: 8411 0fbd 0ca4 f43d d841 0e3d ab1b aebd
00000100: 3689 003e d403 c63d eb03 35bd ed45 413e
00000110: d06c adbd 6eb8 6abe e1a2 553e b5a1 303d
00000120: ceb4 c93b 74aa 3abe 693f 21be c51f e03d
00000130: 80e7 41be cb8c 173e e4e5 96bd 8a58 c13d
00000140: 5829 fb3c 391b 69bd bf9a 28be 9896 6abe
00000150: 608e 0b3e 62e5 1ebe db73 073e 4052 d03d
00000160: 6128 123e 5bd3 8dbd d8bc 26bd 8a9f 0f3e
00000170: 2b06 7e3d b9b5 f13d 4bcf 4f3e 1ae9 d93d
00000180: 85c5 253d 20e5 6bbe a052 51be d956 46be
0.10568409 0.04040646 0.031641956 -0.21524324 0.18381275 0.18996501 -0.2141059 -0.20357236
0.0075791515 -0.040029645 -0.087150514 -0.1454952 0.07121692 0.24163008 -0.1259401 0.029092018
-0.18887042 0.10140741 -0.15950608 0.045093294 -0.121302895 0.21676944 -0.19512933 0.2403394
-0.11955105 -0.052718326 0.11823026 0.066890515 -0.09223675 -0.09926404 0.1426476 -0.0788388
0.06191016 -0.19318259 0.14364854 0.026311502 -0.24252908 0.17084605 -0.15137202 0.23466267
-0.03857207 0.013496152 0.0010703985 -0.17516007 0.03328079 -0.16850184 -0.100471355 -0.023882274
0.111839764 -0.06111264 -0.16740146 -0.08315859 0.087193884 0.049332567 0.10820251 0.043490645
0.058082864 0.096219555 -0.025179433 -0.04386714 -0.034928814 0.11945352 0.034730762 -0.08501371
0.12552342 0.09668699 -0.04419319 0.18874331 -0.0846802 -0.22921917 0.20862915 0.043122966
0.006155587 -0.18229085 -0.15746845 0.109435596 -0.18935966 0.14799802 -0.07368067 0.094407156
0.030659363 -0.056910727 -0.16465281 -0.2290901 0.1362853 -0.1551719 0.13227789 0.10171938
0.14273216 -0.069250785 -0.04070744 0.14025703 0.0620176 0.11802239 0.2029392 0.10640164
0.040471572 -0.23036623 -0.20441675 -0.19369067
