Assets/Models/models_transform/trained_model_peace_sign/model_weights_peace_sign.onnx (onnx, 10348 bytes, 1 tensors)

fc1.bias f4 [100]
0.03353922 0.051983282 -0.037054762 0.03304027 -0.16306189 -0.0896849 -0.16141084 0.06719376
0.09764786 -0.21405075 0.08188318 -0.19846949 -0.15011302 0.005496025 -0.15823556 0.14797235
0.19340403 -0.14053749 -0.13611361 0.19945721 0.0021755695 -0.15050998 -0.016785257 0.05566828
0.15284927 -0.116553366 -0.08823168 0.038858518 -0.17994873 0.016094998 -0.20383729 0.027291238
-0.028493304 0.026073098 -0.20067073 0.05660719 -0.043220125 0.0385515 0.20810537 0.022661924
0.2083986 0.04994361 0.18167542 0.005669385 0.11270016 -0.08310361 0.09917955 0.03575979
0.1666903 0.16030537 -0.09020716 -0.1090639 0.12008168 -0.17504151 0.15018554 0.08278884
-0.118806586 -0.18844147 -0.13274977 -0.091853246 -0.07006766 0.0165454 -0.16733648 0.15121116
0.12952994 0.13251668 -0.10747009 0.08610512 0.13143669 0.19246303 0.10247502 0.049696848
0.17017736 -0.018885687 0.17411932 0.19308446 -0.046003908 -0.037506565 -0.03435421 0.1540842
0.121803895 -0.16693933 0.15962164 -0.0375543 -0.18856898 -0.21269675 -0.12996447 0.20795052
-0.06059231 0.09657316 -0.20944738 0.20531203 -0.1061408 0.05408804 -0.14848989 0.16005982
-0.035013657 0.1457919 0.13334791 0.05735816
00000000: 6c60 093d 6cec 543d bcc6 17bd 3c55 073d
00000010: b2f9 26be b8ac b7bd e248 25be e29c 893d
00000020: 9afb c73d 1f30 5bbe 5eb2 a73d 963b 4bbe
00000030: 3ab7 19be 0018 b43b 8108 22be 1086 173e
00000040: b50b 463e 0fe9 0fbe 5e61 0bbe 833e 4c3e
00000050: 0094 0e3b 4a1f 1abe 3c81 89bc 6c04 643d
00000060: 8584 1c3e 88b3 eebd d0b2 b4bd 1c2a 1f3d
00000070: 7b44 38be a8d9 833c b9ba 50be e091 df3c
00000080: ca6a e9bc 4097 d53c a17c 4dbe f1dc 673d
00000090: 9607 31bd 2de8 1d3d 9319 553e 80a5 b93c
000000a0: 7166 553e ac91 4c3d 1f09 3a3e 40c6 b93b
000000b0: 57cf e63d 3a32 aabd a61e cb3d dc78 123d
000000c0: ddb0 2a3e 1727 243e 88be b8bd e55c dfbd
000000d0: 62ed f53d 153e 33be 3dca 193e 328d a93d
000000e0: de50 f3bd cdf6 40be 8eef 07be 8e1d bcbd
000000f0: a27f 8fbd 388a 873c 415a 2bbe 19d7 1a3e
00000100: 7fa3 043e 74b2 073e 4719 dcbd e257 b03d
00000110: 5797 063e 0715 453e 6cde d13d ec8e 4b3d
00000120: f942 2e3e 28b6 9abc 564c 323e efb7 453e
00000130: 986e 3cbd 7ca0 19bd 00b7 0cbd 40c8 1d3e
00000140: 5274 f93d 25f2 2abe db73 233e 8ad2 19bd
00000150: 3a18 41be 2dcd 59be 6815 05be fbf0 543e
00000160: a42f 78bd 26c8 c53d 6079 56be 513d 523e
00000170: 5960 d9bd 6c8b 5d3d bc0d 18be b9e6 233e
00000180: 7b6a 0fbd 794a 153e 5b8c 083e 64f0 6a3d
