Assets/WIzardGame/Models/diamond_two_hands.onnx (onnx, 19549 bytes, 1 tensors)

fc1.bias f4 [100]
0.1381526 0.10342252 -0.013544994 0.063289985 -0.05770136 -0.09320937 -0.045087416 0.014455562
-0.043034967 -0.08752115 0.021654947 -0.13670667 -0.027349226 0.07087129 0.048355654 -0.07250779
0.010938161 0.03829754 0.10070487 0.04181704 0.049132094 0.08835732 -0.08281155 0.14528607
0.10633669 0.02733059 0.08152034 0.019358067 -0.04017638 -0.0016697234 -0.14338289 0.01676214
0.06945018 -0.038730007 -0.12271708 -0.12103215 -0.11537106 0.12733455 -0.038561344 0.04152671
-0.14411765 -0.057750963 0.13500874 -0.13113993 0.0058997124 -0.026940664 -0.13825724 -0.14722106
0.13184617 -0.022233106 -0.025449498 0.023561522 0.0009700464 0.05736159 0.0842062 0.040859174
0.010895136 -0.075742334 0.11745358 0.13837272 0.037044335 -0.11596045 -0.0063423677 0.06982095
0.12715411 -0.12906103 0.14941357 0.09897149 0.12542592 -0.0029619099 0.08445386 -0.032122504
-0.064564526 -0.012387218 -0.07084177 0.089373626 -0.0529919 0.043575183 -0.14427932 -0.021968514
0.12957299 0.098234355 -0.03737979 -0.023057835 0.03920783 0.12856093 -0.08403493 0.1124965
-0.11957349 -0.0062321234 -0.031874157 -0.11030876 0.10362756 -0.13666767 -0.07968333 -0.0730118
0.13638434 -0.13705206 0.11137001 0.05801491
00000000: e077 0d3e 30cf d33d d3eb 5dbc 2e9e 813d
00000010: 4358 6cbd 8ee4 bebd 95ad 38bd 06d7 6c3c
00000020: 6f45 30bd 4a3e b3bd b765 b13c d5fc 0bbe
00000030: 7c0b e0bc f824 913d 9410 463d f77e 94bd
00000040: f935 333c e2dd 1c3d 5b3e ce3d 5848 2b3d
00000050: bc3e 493d aff4 b43d 1a99 a9bd dfc5 143e
00000060: 0dc7 d93d 67e4 df3c 23f4 a63d cf94 9e3c
00000070: fd8f 24bd 9fda daba f7d2 12be c150 893c
00000080: e53b 8e3d 5ba3 1ebd 1853 fbbd b4df f7bd
00000090: aa47 ecbd fd63 023e 80f2 1dbd e917 2a3d
000000a0: 9493 13be 468c 6cbd bb3f 0a3e 8c49 06be
000000b0: 6052 c13b abb2 dcbc 4e93 0dbe 1ec1 16be
000000c0: af02 073e 3422 b6bc 777b d0bc 1804 c13c
000000d0: b64a 7e3a fdf3 6a3d 4d74 ac3d f35b 273d
000000e0: 8381 323c cc1e 9bbd 818b f03d 94b1 0d3e
000000f0: cdbb 173d ac7c edbd a3d3 cfbb 49fe 8e3d
00000100: b034 023e 9328 04be dfff 183e 91b1 ca3d
00000110: a76f 003e 9a1c 42bb 25f6 ac3d e392 03bd
00000120: 683a 84bd c2f3 4abc 7d15 91bd 8509 b73d
00000130: 090e 59bd e47b 323d f5bd 13be 50f7 b3bc
00000140: c8ae 043e 182f c93d 8d1b 19bd c9e3 bcbc
00000150: 6498 203d 7aa5 033e 811a acbd 9164 e63d
00000160: f2e2 f4bd d736 ccbb 7a8e 02bd 8fe9 e1bd
00000170: b03a d43d 9cf2 0bbe 0431 a3bd 3687 95bd
00000180: 56a8 0b3e 6057 0cbe f615 e43d 0ba1 6d3d
