Assets/Models/models_transform/trained_model_erm_actually/model_weights_erm_actually.onnx (onnx, 10348 bytes, 1 tensors)

fc1.bias f4 [100]
0	0x3e49bf49	0.19701876
1	0xbe143f4e	-0.14477274
2	0xbdb8bf25	-0.09020833
3	0x3d9c9f5a	0.076475814
4	0xbc94a3e8	-0.018144563
5	0xbdc4e447	-0.09613853
6	0x3e1e73a2	0.15473798
7	0xbe1e7775	-0.15475257
8	0x3e38dfc5	0.18054111
9	0x3e1f495d	0.1555533
10	0xbe420f27	-0.18951093
11	0xbc8532d8	-0.016259596
12	0x3e2044ab	0.15651195
13	0xbe55f97e	-0.20895955
14	0x3e0f67d1	0.14004447
15	0x3d140104	0.03613378
16	0xbc5c8df2	-0.013461577
17	0x3dd314da	0.103067115
18	0x3d8bf79a	0.068343356
19	0x3e3287fd	0.17434688
20	0xbdb8522c	-0.09000048
21	0xbd8fdeb2	-0.07024898
22	0x3dd0677f	0.1017599
23	0xbdc33fe6	-0.09533672
24	0xbe07fd20	-0.13280153
25	0xbdc57779	-0.09641928
26	0xbdb93b11	-0.09044469
27	0xbe27784a	-0.1635448
28	0x3d5d084c	0.05396299
29	0x3e46fee3	0.19433169
30	0xbbb64c80	-0.0055633187
31	0x3e368eab	0.17827861
32	0xbd673d64	-0.05645503
33	0xbe40ec14	-0.18840057
34	0xbcc71ac8	-0.024304762
35	0xbcb658a0	-0.022259057
36	0xbd959ca0	-0.073052645
37	0x3e59797d	0.2123775
38	0xbd9590cc	-0.073030084
39	0x3bb0263b	0.005375651
40	0xbe367eec	-0.17821854
41	0xbe53bcc4	-0.20677477
42	0xbd60d4df	-0.05489051
43	0x3d6a70bf	0.05723643
44	0x3df1aeb6	0.118009016
45	0x3e30c9ed	0.17264529
46	0x3e0f62d5	0.14002545
47	0xbe58d27e	-0.21174046
48	0x3d2c2c8a	0.042034663
49	0x3e3ab071	0.1823137
50	0x3dd11712	0.102094784
51	0x3d906d5e	0.0705211
52	0x3d8980d2	0.06714024
53	0xbd031378	-0.03200099
54	0x3da9a8da	0.08284159
55	0xbd0a7989	-0.03380731
56	0xbc9849b0	-0.018589824
57	0x3dae409a	0.085084155
58	0xbd45e974	-0.04831834
59	0x3e1a831f	0.15089081
60	0xbe10f69d	-0.14156576
61	0x3e157cf7	0.14598452
62	0x3cfc48a8	0.030796364
63	0xbdcb6ceb	-0.09932884
64	0xbd2861ec	-0.04110901
65	0xbe2702b2	-0.16309622
66	0x3e5b58e9	0.21420635
67	0xbcf5c182	-0.029999498
68	0x3e29e878	0.16592586
69	0xbe160f7a	-0.14654341
70	0x3e22aee1	0.15887024
71	0xbe59d0e2	-0.21271089
72	0xbe5aea61	-0.21378471
73	0x3cb06d10	0.02153638
74	0xbd3a1c08	-0.04543689
75	0xbe006ab8	-0.1254071
76	0x3e32a293	0.1744483
77	0xbe1cf9fa	-0.15329733
78	0x3be90da0	0.00711222
79	0x3e4464e7	0.19179116
80	0x3e42c64e	0.1902096
81	0x3e168423	0.14698844
82	0x3df77257	0.120823555
83	0xbd9f427c	-0.07776353
84	0xbe32fa18	-0.17478216
85	0xbde30ff5	-0.11087028
86	0xbe375b1c	-0.17905849
87	0xbcc47b74	-0.023984648
88	0x3d85751e	0.06516479
89	0x3e4a2f5f	0.19744633
90	0xbe423f84	-0.18969542
91	0xbd80826c	-0.06274876
92	0xbe294f82	-0.16534236
93	0x3e2cef65	0.16888197
94	0xbd9c0e84	-0.07619956
95	0x3cffa278	0.0312054
96	0x3e101a6b	0.14072578
97	0xbe4ccead	-0.20000716
98	0xbe3f0879	-0.18655576
99	0xbd2f96d8	-0.042868465
