Assets/Models/serverModels/two_hands.onnx (onnx, 8744 bytes, 1 tensors)

fc1.bias f4 [100]
0	0xbd48f0be	-0.049057715
1	0x3e584b3d	0.21122451
2	0xbd1c646b	-0.038181704
3	0xbdb5218d	-0.0884429
4	0xbcdabd2b	-0.02670153
5	0xbe026a3c	-0.12735838
6	0xbe3467fb	-0.1761779
7	0xbd4f3fd9	-0.050598
8	0x3df668ba	0.12031694
9	0x3de1045b	0.10987159
10	0xbdeaf561	-0.114725836
11	0x3e742f79	0.23846234
12	0xbe5a1d53	-0.21300249
13	0xbce34ed8	-0.027747557
14	0xbe736563	-0.23769145
15	0x3b692426	0.0035574525
16	0x3e14cc19	0.14530982
17	0xbe7005ff	-0.23439787
18	0xbe716336	-0.23573002
19	0x3ca89556	0.020579021
20	0x3e5cf912	0.21579388
21	0xbc97418a	-0.018463869
22	0x3e6027bb	0.21890156
23	0xbdd13805	-0.10215763
24	0x3e0fb3a3	0.1403337
25	0xbd85ec7d	-0.06539247
26	0x3d81dd60	0.06341052
27	0x3e217b0d	0.15769596
28	0x3e0fd326	0.1404539
29	0x3de60613	0.11231627
30	0xbdad3c65	-0.08458785
31	0xbdc97608	-0.09836966
32	0xba7664b9	-0.0009399164
33	0xbcd95494	-0.026529588
34	0xbe665242	-0.22492316
35	0x3d281937	0.04103967
36	0xbdacd6fc	-0.084394425
37	0x3c53b712	0.012922065
38	0x3d8616fa	0.06547351
39	0xbda0fad6	-0.07860343
40	0xbd7c2a21	-0.061563615
41	0xbe4e77a9	-0.20162834
42	0xbe637f5a	-0.2221655
43	0xbe492142	-0.19641593
44	0xbe262546	-0.16225156
45	0xbdb4fb2c	-0.0883697
46	0xbe48c56c	-0.1960656
47	0x3e4c23e5	0.19935568
48	0x3e0cfecf	0.13769077
49	0xbba1d9d1	-0.004939296
50	0x3dd56ee5	0.10421542
51	0xbdb15da0	-0.08660436
52	0x3e509674	0.20369893
53	0x3dcbe74a	0.09956224
54	0xbd158200	-0.03650093
55	0xbd1a459f	-0.037664052
56	0x3dfa878b	0.12232884
57	0xbd9b1ce3	-0.07573869
58	0x3e5caaaf	0.21549486
59	0xbdd59c57	-0.1043021
60	0x3e594c55	0.21220525
61	0xbe56824b	-0.2094814
62	0xbc176f23	-0.009242806
63	0xbd90880d	-0.070571996
64	0xbe638bf8	-0.22221363
65	0x3d6ec78e	0.05829578
66	0x3d8d8b14	0.06911293
67	0x3e6e1809	0.23251356
68	0xbe319c58	-0.17344797
69	0xbe46999f	-0.1939454
70	0xbd6e7194	-0.058213785
71	0x3dca57ce	0.09880029
72	0xbde6067b	-0.11231705
73	0xbe51c38a	-0.20484748
74	0x3b58148e	0.0032971236
75	0x3d7d1344	0.06178595
76	0xbd45cf78	-0.04829356
77	0x3d38c1a9	0.045106564
78	0xbe43900b	-0.19097917
79	0x3c5799b8	0.013159208
80	0xbd05bc3d	-0.03265022
81	0x3e4e62a0	0.2015481
82	0xbe6c5c9f	-0.23082207
83	0xbd6c4079	-0.057678673
84	0x3e49fcd2	0.1972535
85	0x3e41dec5	0.18932636
86	0x3d855453	0.06510224
87	0x3e1db074	0.15399343
88	0x3ccdc7a5	0.025119612
89	0x3e0efbb6	0.13963208
90	0x3e2cf015	0.16888459
91	0x3e247461	0.1606002
92	0xbd354b67	-0.044261362
93	0x3e265046	0.1624156
94	0x3ccccd3a	0.025000203
95	0xbdfc0b90	-0.12306893
96	0xbe3afab2	-0.18259695
97	0xbe4ecc2d	-0.20195074
98	0xbded6078	-0.115906656
99	0xbe634049	-0.22192492
