Assets/Models/models_transform/trained_model_finger_gun/model_weights_finger_gun.onnx (onnx, 10348 bytes, 1 tensors)

fc1.bias f4 [100]
0	0xbdf574b7	-0.11985152
1	0x3d5250d4	0.051346615
2	0x3d59fba4	0.0532185
3	0x3dd1652e	0.102243766
4	0x3e0ec53c	0.13942426
5	0x3e08e2d3	0.13367777
6	0xbb992b60	-0.00467436
7	0x3e4e52c7	0.20148765
8	0xbe3ed330	-0.18635249
9	0x3d060ec4	0.032728925
10	0xbe5bddb5	-0.21471293
11	0xbe04b438	-0.12959373
12	0xbd9c8844	-0.07643178
13	0xbdb1345e	-0.086525664
14	0xbe3e6534	-0.18593293
15	0x3ba4bf0b	0.005027657
16	0xbd81d20e	-0.06338893
17	0x3d02e79a	0.031959154
18	0xbdf93bc3	-0.12169602
19	0x3e4a4660	0.19753408
20	0xbdc37233	-0.09543266
21	0xbe4aeedd	-0.19817682
22	0x3e299b87	0.16563235
23	0xbe00b000	-0.12567139
24	0xbdfaec84	-0.12252143
25	0xbdedc3fb	-0.11609646
26	0x3e4cd1db	0.20001929
27	0x3e33a9ee	0.17545292
28	0xbe5b30d6	-0.21405348
29	0x3e45a2e3	0.19300418
30	0xbce53aa0	-0.027982056
31	0xbe241fe2	-0.16027787
32	0x3e1893f8	0.14900196
33	0xbe4d093d	-0.20023055
34	0x3e2378b3	0.15964012
35	0x3d9af4ed	0.07566247
36	0xbdb699f4	-0.08916083
37	0x3de8f0ee	0.11374079
38	0x3cd815bb	0.02637755
39	0xbd5a6848	-0.053322107
40	0x3d05dd5c	0.032681808
41	0x3e096d35	0.13420565
42	0xbd0e3f14	-0.034728125
43	0xbe1b0b03	-0.1514092
44	0x3d1713a4	0.036883965
45	0xbe56892b	-0.20950763
46	0xbd6d6d30	-0.057965457
47	0xbd68600f	-0.056732234
48	0x3d5eb9c3	0.054376375
49	0xbe05ad65	-0.13054426
50	0xbe43ce98	-0.19121778
51	0xbddb036f	-0.10694014
52	0x3dfbe30a	0.12299164
53	0xbd766380	-0.060153484
54	0x3e0cbfaf	0.13744996
55	0x3e37d11f	0.17950867
56	0xbe420e34	-0.1895073
57	0x3d610a41	0.05494142
58	0xbe375bb6	-0.17906079
59	0x3e11b3e3	0.14228778
60	0xbdfb7738	-0.122785985
61	0xbc22f750	-0.009946659
62	0xbbb25085	-0.0054417276
63	0xbdbdbf9e	-0.09265064
64	0x3ddaaea6	0.10677843
65	0x3d410fd4	0.047134236
66	0xbe2934b9	-0.16524018
67	0x3d7ecd44	0.062207475
68	0xbc4829f0	-0.01221703
69	0xbcf3d258	-0.029763386
70	0xbd3da778	-0.04630229
71	0xbe43b0ff	-0.19110487
72	0x3e11053d	0.14162154
73	0xbdee345f	-0.11631083
74	0x3e0133f1	0.1261747
75	0xbe543e44	-0.20726877
76	0x3d81a452	0.0633017
77	0xbe042e5a	-0.12908307
78	0xbe587474	-0.21138173
79	0x3de88146	0.11352782
80	0x3d70c17c	0.05877827
81	0xbc271260	-0.010197252
82	0xbe556051	-0.20837523
83	0x3dd2331e	0.10263656
84	0x3db92866	0.090409085
85	0xbe028b5a	-0.12748471
86	0x3b8b01e0	0.004242167
87	0xbdedc903	-0.116106056
88	0xbe22254c	-0.1583454
89	0xbe3d9851	-0.18515135
90	0xbd6ada45	-0.057337064
91	0xbc7099f0	-0.014685139
92	0x3d09cd6c	0.03364317
93	0xbd0dcbc0	-0.03461814
94	0xbd65034c	-0.055911347
95	0x3db1fee5	0.086911954
96	0x3e2265f7	0.15859209
97	0x3e26edc3	0.16301636
98	0xbe56dc6f	-0.20982526
99	0x3db5127e	0.08841418
