trained_model/model_weights.onnx (onnx, 8744 bytes, 1 tensors)

fc1.bias f4 [100]
0	0xbe13d386	-0.14436159
1	0x3e64a791	0.22329547
2	0x3ded7372	0.11594285
3	0xbd80dc70	-0.06292045
4	0x3d930e52	0.07180466
5	0xbe4eb5f1	-0.20186593
6	0x3e6a2626	0.22866115
7	0xbdd71f71	-0.10504044
8	0x3dd09829	0.10185272
9	0xbe4ef209	-0.20209517
10	0x3d2ae02f	0.041717704
11	0x3e36d8f9	0.17856206
12	0x3e74675e	0.23867556
13	0x3e0b446b	0.13600318
14	0x3e69330f	0.22773384
15	0x3e1e953e	0.15486619
16	0xbda96848	-0.08271843
17	0xbe1758e8	-0.14780009
18	0xbdcd949c	-0.100381106
19	0xbe4a401e	-0.19751021
20	0x3e5626da	0.20913258
21	0x3c8eeebe	0.017447826
22	0xbe42d899	-0.19027938
23	0x3e10004f	0.14062618
24	0x3e54a459	0.20765819
25	0xbd1ff4c6	-0.039051794
26	0xbe7664cf	-0.24061893
27	0x3e469dd2	0.19396141
28	0x3e2c2f74	0.16814977
29	0x3e4d75ce	0.2006447
30	0x3d93d084	0.072175056
31	0xbe65246a	-0.22377172
32	0x3e32933a	0.17438975
33	0x3e48bc39	0.19603051
34	0xbe5e34be	-0.21699807
35	0xbe15b804	-0.14620978
36	0xbe174346	-0.14771757
37	0x3c14439b	0.0090493215
38	0x3e2fa450	0.17152524
39	0x3e737bda	0.23777714
40	0xbd8f0d55	-0.06984965
41	0xbd216dfa	-0.039411522
42	0x3ca83061	0.020530881
43	0x3cf14c3f	0.029455302
44	0x3e5e7950	0.21725965
45	0xbe6a820e	-0.22901174
46	0xbe4b4a81	-0.1985264
47	0x3e6bb137	0.23016821
48	0xbcb79b6f	-0.022412984
49	0xbdba565e	-0.090985045
50	0x3d8bbfea	0.06823714
51	0xbe35a806	-0.17739877
52	0xbdce03eb	-0.10059341
53	0x3df87955	0.12132517
54	0x3e082184	0.13294035
55	0x3cfff71f	0.031245766
56	0xbe40d957	-0.18832909
57	0xbdcf59dd	-0.10124562
58	0xbe600280	-0.21875954
59	0xbe54430f	-0.20728706
60	0xbe4804eb	-0.19533126
61	0xbe66887e	-0.22513005
62	0xbe5dba53	-0.21653108
63	0xbe13220a	-0.14368454
64	0x3ddfdb1f	0.10930466
65	0x3da8b833	0.08238258
66	0xbe607688	-0.21920216
67	0xbcc31aff	-0.023816584
68	0xbe218102	-0.15771869
69	0xbddc3c48	-0.10753685
70	0xbe2a88d9	-0.16653766
71	0xbe034286	-0.12818345
72	0x3d8374c6	0.06418757
73	0xbe67593e	-0.22592637
74	0xbe492d67	-0.19646226
75	0xbcd31a93	-0.025769508
76	0x3e14fb6a	0.14549032
77	0x3e0c72b2	0.13715628
78	0x3d3404ec	0.043950006
79	0xba90014e	-0.0010986717
80	0xbe2be026	-0.16784725
81	0xbe687c58	-0.22703683
82	0xbd885df1	-0.06658543
83	0x3db74a81	0.08949757
84	0x3d43a286	0.047762416
85	0x3de7d000	0.1131897
86	0xbe0911d2	-0.13385704
87	0xbd75351a	-0.059865095
88	0x3db2cada	0.08730097
89	0x3c0e98a5	0.0087033855
90	0xbda9e64f	-0.08295881
91	0x3e640539	0.22267617
92	0xbc9a2a7d	-0.018819088
93	0x3e05d12e	0.13068077
94	0x3e54876b	0.20754783
95	0xbc7c83fd	-0.015412328
96	0xbc98cb8a	-0.018651742
97	0x3d23b180	0.0399642
98	0xbd493371	-0.049121324
99	0x3ddd8f2b	0.10818323
