trained_model/model_weights.onnx (onnx, 8744 bytes, 1 tensors)

fc1.bias f4 [100]
0	0x3b77258c	0.0037711589
1	0xbd4d0dd5	-0.05006202
2	0x3e55562c	0.20833653
3	0x3e6514a7	0.2237116
4	0x3be52639	0.006993082
5	0x3c71b944	0.014753643
6	0x3e7445a4	0.23854691
7	0xbe648437	-0.22316061
8	0x3e09219f	0.13391732
9	0x3e216cb4	0.15764123
10	0xbda85843	-0.082199596
11	0xbdf5590a	-0.119798735
12	0x3d70cad3	0.05878718
13	0xbe2391c4	-0.15973574
14	0xbe55caa7	-0.20878087
15	0x3e56ebe1	0.20988418
16	0xbe51cbee	-0.20487949
17	0xbdc6968b	-0.096966825
18	0x3e64d052	0.22345093
19	0xbe711d40	-0.23546314
20	0xbe561b78	-0.20908916
21	0x3c737184	0.014858607
22	0xbdc1feac	-0.09472403
23	0xbd30a321	-0.04312432
24	0xbe08e01a	-0.13366738
25	0x3e3660a9	0.1781031
26	0xbd194479	-0.037418816
27	0x3d877b8c	0.066153616
28	0x3e577d17	0.21043812
29	0x3e17705d	0.14788957
30	0xbe1fbb7e	-0.15598866
31	0x3ddf067a	0.10889907
32	0xbe336821	-0.17520191
33	0x3e27c62c	0.1638419
34	0x3d033d4f	0.03204089
35	0x3e64a206	0.22327432
36	0xbbc0cd91	-0.0058838804
37	0x3e5851ec	0.21125
38	0xbe26c319	-0.16285361
39	0xbd8caf4c	-0.06869373
40	0x3d238360	0.03992021
41	0x3d854f3c	0.065092534
42	0x3e5d0ab1	0.2158611
43	0x3e2e4cd3	0.17021494
44	0xbcc1502e	-0.023597803
45	0x3e0bc3db	0.13648932
46	0x3da04ddc	0.078273505
47	0x3da99b27	0.08281546
48	0x3c8629c6	0.016377341
49	0xbdc4fbc0	-0.0961833
50	0xbe042be5	-0.1290737
51	0x3daaab2c	0.0833343
52	0x3c655524	0.01399735
53	0xbe1ddcf8	-0.15416324
54	0x3d8630b3	0.065522574
55	0x3de64596	0.11243741
56	0x3dce6525	0.100778855
57	0xbd98b0f7	-0.07455628
58	0xbd981a2b	-0.07426866
59	0x3d16b304	0.036791816
60	0xbdceb683	-0.10093405
61	0x3e0478e2	0.12936738
62	0xbd6b935d	-0.057513583
63	0xbd931165	-0.07181052
64	0xbdf08c0a	-0.1174546
65	0xbe0d84a0	-0.13820124
66	0x3d70aacf	0.058756646
67	0xbd9ddae0	-0.07707763
68	0xbbb1813b	-0.005417017
69	0x3e1c8ab7	0.1528729
70	0x3dc17ccf	0.094476335
71	0xbe381094	-0.17975074
72	0x3ca396b0	0.019969314
73	0xbe3d5662	-0.18489984
74	0xbbfb2a60	-0.0076649636
75	0x3dbd8a52	0.09254898
76	0xbdb1f2aa	-0.086888626
77	0xbe3a2ee1	-0.18181945
78	0x3e3ab30e	0.18232366
79	0x3e717f68	0.23583758
80	0x3e32f189	0.17474951
81	0xbe5fd672	-0.21859148
82	0xbe060045	-0.1308604
83	0x3e3e2b48	0.18571198
84	0xbd01bc67	-0.031673815
85	0x3d4504f3	0.048100423
86	0xbe6414c7	-0.22273551
87	0xbd147955	-0.036248524
88	0x3e70f410	0.23530602
89	0xbdac2f46	-0.08407454
90	0xbe720b49	-0.23637117
91	0xbdbc73d6	-0.092017815
92	0xbdfb1745	-0.12260298
93	0xbe22331d	-0.1583981
94	0x3d9911cc	0.074740976
95	0xbde74b5a	-0.11293669
96	0x3e718b6e	0.23588344
97	0xbdd7c6a0	-0.105359316
98	0xbbad3fc3	-0.005287142
99	0xbe13f827	-0.14450131
