trained_model/model_weights.onnx (onnx, 8744 bytes, 1 tensors)

fc1.bias f4 [100]
0	0x3d303562	0.04301966
1	0xbe61f2ce	-0.22065279
2	0xbd3624f5	-0.04446884
3	0xbdbc25bf	-0.09186887
4	0x3df96f6a	0.12179454
5	0x3e11790b	0.1420633
6	0x3e2001d0	0.15625691
7	0x3e298144	0.16553217
8	0xbe6ebdfc	-0.23314661
9	0x3e254afc	0.16141886
10	0xbe4cd986	-0.20004854
11	0xbbb4fbd2	-0.0055231834
12	0x3c816326	0.015794348
13	0x3d9b882a	0.075943306
14	0xbe4e7a06	-0.20163736
15	0xbe1a5aed	-0.15073748
16	0x3e2bb18c	0.16766948
17	0x3d94a91d	0.07258818
18	0x3e280a51	0.16410185
19	0xbdbd49d9	-0.09242601
20	0xbe2c329c	-0.16816181
21	0xbd2bca2a	-0.041940846
22	0xbd74871c	-0.059699163
23	0x3e0822ce	0.13294527
24	0x3d446693	0.047949385
25	0x3de5779d	0.11204455
26	0xbb4854be	-0.0030568088
27	0xbe7446b1	-0.23855092
28	0x3c759f04	0.014991526
29	0x3e66e950	0.22549939
30	0xbe40fba6	-0.18845996
31	0xbe1c4bb7	-0.15263258
32	0xbe4f369e	-0.20235679
33	0xbe32ef01	-0.17473985
34	0x3de26d3e	0.110559925
35	0xbe4a6a19	-0.19767036
36	0xbdab21dc	-0.083560675
37	0xbe28ed24	-0.16496712
38	0x3d034731	0.032050315
39	0xbe3e673d	-0.1859407
40	0xbe730556	-0.23732504
41	0x3e1f0e3f	0.15532778
42	0xbc98fe5a	-0.018675972
43	0x3e5ddc00	0.21665955
44	0xbe46f71b	-0.19430201
45	0xbd675841	-0.05648065
46	0xbd6f4f1a	-0.058425047
47	0x3ded45b6	0.11585562
48	0x3e682ba7	0.22672902
49	0x3e37803f	0.17920016
50	0x3e3cb22f	0.18427347
51	0xbb87a967	-0.0041400674
52	0x3cb640d2	0.022247706
53	0xbe190e27	-0.14946805
54	0xbd7f00c4	-0.06225659
55	0xbe3b2995	-0.18277581
56	0xbe67290e	-0.22574255
57	0xbe295c29	-0.16539063
58	0x3e1216e7	0.14266549
59	0xbe1212f2	-0.1426504
60	0x3d8140d1	0.06311191
61	0xbe74ac61	-0.23893882
62	0xbdab392d	-0.08360515
63	0xbe2341fd	-0.15943141
64	0xbd9ff54e	-0.0781046
65	0xbdce2240	-0.100651264
66	0x3dd5f689	0.104474135
67	0xbe37b6e3	-0.1794086
68	0xbe29ad00	-0.165699
69	0x3d222257	0.03958353
70	0xbd9e7729	-0.07737572
71	0x3e74d097	0.23907696
72	0xbc495f21	-0.012290747
73	0xbcd74ca5	-0.026281664
74	0x3e466445	0.19374187
75	0x3b002d5a	0.0019558282
76	0x3da684f1	0.08130825
77	0xbe442395	-0.19154198
78	0x3e3a1f94	0.18176109
79	0xbe01272a	-0.12612596
80	0x3e006719	0.12539329
81	0xbe2e15cb	-0.17000501
82	0x3e264a22	0.16239217
83	0x3e0df49b	0.13862841
84	0x3def6b16	0.11690347
85	0xbce04d76	-0.027380686
86	0x3db9b3dd	0.09067509
87	0xbd918e3c	-0.07107207
88	0x3e45ad89	0.1930448
89	0x3e53bf85	0.20678528
90	0xbe58cbb7	-0.21171461
91	0x3ddb17e1	0.10697914
92	0x3cffc0ea	0.031219918
93	0xbe75af20	-0.23992586
94	0xbc325faa	-0.010887066
95	0xbe142a7d	-0.14469333
96	0xbe6ae8fb	-0.22940437
97	0x3e446ac2	0.1918135
98	0xbda34bfc	-0.07973477
99	0x3e19e102	0.1502724
