Assets/Models/models_transform/trained_model_thumbs_up/model_weights_thumbs_up.onnx (onnx, 10348 bytes, 1 tensors)

fc1.bias f4 [100]
000000 a5 fe e8 bd b5 39 42 3e da de bf bd 52 87 c9 3d
       -0.113766946 0.18967326 -0.093686774 0.098402634
000010 5a 41 82 3c 60 8a 24 3c d4 8d 27 3d 29 b6 e1 bd
       0.015900303 0.010042757 0.040906742 -0.110210724
000020 a6 d3 8c 3d d1 07 16 be 04 9f 38 bd 44 f6 f3 bd
       0.06876306 -0.14651419 -0.045073524 -0.11912206
000030 10 7c 14 bd 2c c2 1a 3d 04 bd 12 3d ab 91 16 be
       -0.036251128 0.037782833 0.03582479 -0.14704005
000040 4e 18 95 bd 72 a2 c3 3d f5 26 d2 bb 23 c8 1e 3e
       -0.072800264 0.09552468 -0.0064133354 0.15506034
000050 ea e3 f9 3d 4d db 0b 3e a0 52 74 3c c8 27 c7 3c
       0.12201674 0.13657875 0.014912277 0.024310961
000060 00 a6 c9 3b ae 63 c7 3d 49 ca 5b be 00 98 ce ba
       0.006153822 0.09735809 -0.21463884 -0.0015761852
000070 a9 d3 9d bc 60 c1 23 bc fb ac 42 3e 6c b9 5a 3d
       -0.019265966 -0.009994835 0.190113 0.05339949
000080 14 3e 29 3e fb b2 9a 3d c8 14 83 bc 58 0e 81 bc
       0.16527587 0.07553669 -0.01600112 -0.01575391
000090 43 81 2c 3e 28 13 c1 3c 8f 0f db bd b0 b6 55 bd
       0.16846184 0.023568705 -0.10696327 -0.052176178
0000a0 20 97 07 bd 62 a6 da 3d 3c 43 16 bd 14 eb 66 3d
       -0.03310311 0.10676266 -0.036685213 0.05637653
0000b0 64 12 47 bd d4 90 dd bd ad 69 44 be d8 43 fe 3c
       -0.048601523 -0.108186394 -0.19180937 0.03103821
0000c0 40 f0 18 bd ff 72 0c 3e 72 6a 84 bd 84 05 56 be
       -0.037338495 0.13715743 -0.06465615 -0.20900542
0000d0 2e 58 2e be e0 eb 43 bc d6 7e 8f bd 6b 94 05 3e
       -0.17025825 -0.011958092 -0.07006614 0.13044898
0000e0 c5 a5 1e 3e 6b 31 c1 bd f0 ab 0d bc 10 03 60 bd
       0.15492924 -0.09433254 -0.00864695 -0.05469042
0000f0 a4 07 85 bd ed 9d 26 3e eb dc be 3c ac c7 14 be
       -0.06495598 0.16271181 0.023298701 -0.14529294
000100 69 f0 e6 bd 19 fc 84 bc 33 09 1f 3e ab a6 1a 3e
       -0.11276323 -0.01623349 0.15530853 0.15102641
000110 1e 2a 1f be 00 c1 58 3d 4c 48 76 3d 3c e5 76 3d
       -0.1554341 0.052918434 0.06012754 0.06027721
000120 4f 04 47 be 55 df 40 3e 4a b5 c0 bd 7b 9f 43 3e
       -0.19435237 0.18835194 -0.09409578 0.19103806
000130 57 d2 ec 3d 61 aa e5 bd 60 3b 07 bc ba 82 cd bd
       0.11563557 -0.11214138 -0.008253902 -0.100347
000140 40 4a 3f 3b 1a cb 97 3d d1 8b ed bd 2f 01 56 be
       0.0029188544 0.074117854 -0.115989335 -0.20898889
000150 a3 72 5a 3e aa cf 81 bd 0a 58 a4 bd 11 13 3e 3e
       0.21332793 -0.06338437 -0.080246046 0.18561961
000160 a8 70 f9 bc 65 5c 2f 3e 80 c0 98 3a 47 c9 2e 3e
       -0.030449226 0.1712509 0.0011654049 0.17068969
000170 c8 d1 6f bd d8 06 4a bd 85 f6 58 3e f2 bf 12 be
       -0.058549672 -0.049322933 0.2118779 -0.14331034
000180 02 ec 1d be 86 c6 0b 3e 1f de 04 be b2 e1 3a be
       -0.15422061 0.1364995 -0.12975357 -0.18250158
