Assets/Models/models_transform/trained_model_wave/model_weights_wave.onnx (onnx, 10348 bytes, 1 tensors)

fc1.bias f4 [100]
000000 8b 30 24 3e 55 99 0b 3e 75 e7 0b 3e ae 86 9b 3d
       0.16034143 0.1363271 0.13662513 0.075940475
000010 1f df 09 3e 81 0b 5d 3d 40 6d c3 3c 28 46 2a be
       0.1346402 0.05396605 0.023855805 -0.16628325
000020 05 02 55 be a0 6f 0a be 80 4f 27 3c cf 4c 36 3e
       -0.20801552 -0.13519144 0.010211825 0.17802738
000030 bf 19 0f 3e 95 a4 24 be b2 4b dc 3d 20 57 1d be
       0.13974665 -0.16078408 0.10756625 -0.15365267
000040 41 ff 2e be 9d 17 3c 3e 97 1d 56 3d 14 90 ca bd
       -0.17089559 0.18368383 0.052274313 -0.09890762
000050 8b 03 e3 bd 20 50 c0 bd 24 c9 ec bd 38 30 80 3c
       -0.1108466 -0.09390283 -0.11561802 0.015647992
000060 06 07 e2 3d c1 ab cc bd 23 34 d2 bd 5f d1 11 3e
       0.11036496 -0.09993697 -0.102638505 0.14240025
000070 fd 23 39 bd 12 ba 31 3e 94 cb 32 be 48 f9 48 be
       -0.045200337 0.17356136 -0.17460471 -0.19626343
000080 68 e5 37 be 71 d5 e3 bd 0a 83 a9 3d 1a f8 87 bd
       -0.17958605 -0.11124695 0.08276947 -0.066391185
000090 a0 6a 3f bd 68 5b eb bd fd a1 07 be ae 40 aa 3d
       -0.046732545 -0.11492044 -0.13245387 0.08313118
0000a0 83 db a9 3d ed a9 29 be 36 0a a6 3d 73 c3 09 be
       0.08293822 -0.16568728 0.08107416 -0.13453464
0000b0 da ed af bd 7f a9 df bd 94 c4 5d be 60 3d 02 be
       -0.085902885 -0.10921001 -0.2165702 -0.12718725
0000c0 08 7f f8 bd 2c 14 6b 3d 22 ce 54 3e 38 8e 1f bd
       -0.12133604 0.057392284 0.20781758 -0.03895399
0000d0 fa cf 90 3d 00 62 c8 3b 2a ce 95 bd f4 30 04 3d
       0.070709184 0.006115198 -0.07314713 0.032273248
0000e0 27 c4 31 3e 08 87 78 bd 8f a5 1e 3e 79 f7 2e be
       0.17359982 -0.06067565 0.15492843 -0.17086591
0000f0 f2 46 5e be de dd 8b 3d 00 a8 b8 3c e5 f5 d2 3b
       -0.21706751 0.06829427 0.022541046 0.0064380043
000100 ca f5 d7 3d 3d ec 2c 3e eb 75 38 3e 5a d1 33 be
       0.105449274 0.16886993 0.18013732 -0.1756033
000110 74 e9 b6 bd 62 d8 87 3d 86 6a a6 3d bb 72 8f bc
       -0.089312464 0.066330686 0.081257865 -0.017510762
000120 34 ed 42 bc f4 0b 97 bd eb 1e 64 3c d1 08 82 bd
       -0.011897374 -0.07375327 0.013923387 -0.06349338
000130 51 53 3a be ac 36 12 3d 6e 1e 8a bd 03 49 4e 3e
       -0.18195845 0.03569667 -0.06744085 0.2014504
000140 ce 71 cb 3d e0 d2 64 bd 8d 53 34 be 8e ed 2d be
       0.09933816 -0.05586517 -0.17609997 -0.16985151
000150 84 74 2a 3d 38 89 ec bc 64 1b 22 be 4a 00 f1 3d
       0.041615024 -0.028874025 -0.15830761 0.11767633
000160 70 fb 12 3c 22 a7 3b be 54 c7 00 3d 92 dc 5e be
       0.00897108 -0.18325475 0.031440094 -0.21763828
000170 ec d9 81 bd fe 12 a4 bd c7 e8 25 be 42 7b 52 be
       -0.063403934 -0.08011435 -0.16202079 -0.20554832
000180 58 52 ad bd 16 7f 59 be 64 4e 48 be bb cd 52 be
       -0.084629714 -0.21239886 -0.19561154 -0.20586292
